hw1/weight.npy (npy, 1432 bytes, 1 tensors)

array f8 [163, 1]
-0.3903571897660927 0.007653898359613439 -0.030825848093931834 0.013491505965323473 0.004193425112378839 -0.014761085701554166 0.04550251275661571 -0.02322604114022246
0.00204842967471641 -0.006685821094399379 0.0856260191300343 0.5212392375510703 0.21616319705685152 0.012966112818702656 0.14140009415071067 0.030866354922906
0.04243090450104202 0.3773807906496046 0.256370305934171 1.3531600280412368 0.5579550195604894 0.15228023931141876 -0.09671986931642529 -0.8199694559729891
-0.8911274953518135 -0.03245544013728266 -1.7154035499704527 4.507707713653017 -1.4514678239486853 -1.515079686203465 0.4106062485393561 0.09173541488061324
0.4847165947854034 -1.0815084953249166 0.40175708107403674 -1.0893944348533289 2.1748405451398005 0.009025025851754841 -0.03381530851928563 0.015217111328681825
-0.008481032707564012 0.031320664029868224 -0.0067756533268414215 0.008589288824784328 0.052860953682723075 -0.08044557138929641 0.002681278748641292 -0.01600271687934145
-0.013851793237907896 0.020174626623372112 -0.007502813956715974 -0.032736141882780026 0.007601622804220497 -0.023702381986843702 0.04161778807392899 -0.01885629905312846
0.014994540793657413 0.010980140775805662 -0.017164551527047663 -0.004420101144504176 0.01461257348524002 0.002431857464329049 -0.027809676186724995 0.01704364006684125
-0.0010201952959240097 -0.002322432453740462 -0.0070109201089772945 0.008962830735453137 -0.00610137493925638 -0.015856636741386175 0.016035110811301857 -0.04488954049231126
0.06973878069702576 -0.004858682759393419 -0.0052584292324755495 0.0036154654572469087 0.005274462540679485 0.004709548913209528 0.0020133877149417553 -0.004626177136495403
-0.00571225734444157 0.011910761596073183 -0.003772294243790427 0.007808818962782761 0.019274220005013856 -0.03147434842214191 -0.014653573633826416 0.10775238724983126
-0.12110144483320318 0.10674259750634839 0.8113143443479801 0.05582720398078708 -0.047688914537540365 0.058383148733525354 -0.047252664609221964 -0.03532362662546671
0.025163241609455423 -0.002504747342998206 -0.017895696563016025 -0.12135517578866886 0.002106290964256909 0.0002142955442063701 0.001346691568088385 -0.015274651970659747
0.025238239920930102 -0.010399903958324986 -0.007692620041084793 0.00830262819505178 -0.0068065867379710696 0.04187042647250571 -0.02238121269435176 -0.04129347579952337
-0.024445892839069193 0.03088674858836561 -0.0651940340663178 0.03036645095086309 -0.09337770217345748 0.11905031982171024 -0.06426120680256947 -0.0028141089685847047
0.07908204766492986 -0.16166981853638918 -0.229774481721494 -0.31866604231366286 -0.1492910739206376 -0.1698898632543439 0.27721624890617075 -0.00016467022808165454
0.0020297880651325775 0.001407382358996579 -0.0010389992868460316 -0.0008730910939251013 -0.0005918972252230053 0.0007332077342588145 0.0008089224222513516 0.0015505151791459285
0.0002613505216863707 -0.00020894629942663242 -0.0017045371018816762 0.0009402104956059409 0.0008591567367114456 0.000626932352938286 0.0003945564161461395 -0.00124473779350741
0.002498504519185934 -0.008366574807225245 -0.03722360162279622 -0.1370692898221466 0.025832193959490542 -0.0116939637875415 -0.05200421410447568 0.09156948060493217
0.22979142281728718 -0.32132298719371116 -0.14132703991438336 -0.02536770371612114 0.14102163025956382 0.050698648017988526 0.12264552458150989 -0.11545868681773848
-0.08160320054550456 0.16659173824846255 -0.1682498148610495
00000000: 0472 f3b8 9cfb d8bf bc5e 43b2 b159 7f3f
00000010: bb56 bda5 cf90 9fbf cfa8 2847 6fa1 8b3f
00000020: 6b4b 74fb 1f2d 713f a6a7 bb62 0f3b 8ebf
00000030: 78d9 59f8 1a4c a73f 6c83 733c 91c8 97bf
00000040: fb06 c14e dec7 603f d85a 286f 9762 7bbf
00000050: 97a4 d937 96eb b53f f38f d5e8 fdad e03f
00000060: 1d9f fa52 3cab cb3f 8cc0 1934 fa8d 8a3f
00000070: eda9 03f6 6519 c23f 3c2f c303 6e9b 9f3f
00000080: bee5 57e6 80b9 a53f 9aa2 7ec2 0127 d83f
00000090: 22c7 e9ff 5e68 d03f 9c10 2b21 8ba6 f53f
000000a0: ccd7 347c c4da e13f 5cb5 d53b eb7d c33f
000000b0: 8062 9623 a2c2 b8bf ccee a395 303d eabf
000000c0: 1d47 23cf 1d84 ecbf 740f efdb ff9d a0bf
000000d0: dd0b 29fe 4a72 fbbf 3d44 e887 e407 1240
000000e0: ece4 3053 3639 f7bf c53e 7132 c43d f8bf
000000f0: 46a0 406e 5f47 da3f fa16 ccde f87b b73f
00000100: 7aa2 9bc0 9805 df3f 5844 1cda db4d f1bf
00000110: e88f 0955 63b6 d93f 303b e2db 286e f1bf
00000120: 3e1f bbcc 1266 0140 19de 0777 b67b 823f
00000130: 2493 6378 3d50 a1bf 6961 f81b 262a 8f3f
00000140: 231f ecf0 805e 81bf e102 6517 4309 a03f
00000150: b042 2a97 c9c0 7bbf 226a c9d4 4297 813f
00000160: 16f7 9a46 9710 ab3f 9f9d 39ba 1498 b4bf
00000170: b412 2e91 0cf7 653f 6d5f 9326 0463 90bf
00000180: 9407 9537 545e 8cbf 62bf 3946 a8a8 943f
00000190: 3830 2749 45bb 7ebf 7a48 91a5 cac2 a0bf
000001a0: 7f52 7315 e122 7f3f 9d17 e2ed 6f45 98bf
000001b0: 5c34 6b3d ed4e a53f fef1 06cf 104f 93bf
000001c0: 9d4d 9e32 75b5 8e3f fcec 4c8c c17c 863f
000001d0: 6232 d68d 9593 91bf e940 c5dd cf1a 72bf
000001e0: 7905 d669 32ed 8d3f eef4 e388 f9eb 633f
000001f0: 36f5 efc6 237a 9cbf c77b c452 e373 913f
00000200: 0322 9e5b 02b7 50bf 6295 f36d 7e06 63bf
00000210: 76aa 5389 7bb7 7cbf ca59 1bc7 1a5b 823f
00000220: b722 325d c1fd 78bf 064c eae0 b83c 90bf
00000230: eacf 1612 826b 903f b9a2 b108 c3fb a6bf
00000240: df4c 5b96 66da b13f a80b dab8 b2e6 73bf
00000250: 021b 4fd9 dc89 75bf 2818 c23c 2e9e 6d3f
00000260: c5ef dbc1 ac9a 753f 8e75 fae8 514a 733f
00000270: 0c98 794c 617e 603f 9ba6 1bf8 e5f2 72bf
00000280: 6fff b067 bc65 77bf 0067 345c ab64 883f
00000290: de14 0e0d 13e7 6ebf 1b70 0ce1 23fc 7f3f
000002a0: 574d 4f02 9fbc 933f efa2 45e2 671d a0bf
000002b0: 63e9 365c b102 8ebf d7cf 4d13 a995 bb3f
000002c0: a894 0e19 8100 bfbf 573e 619d 7b53 bb3f
000002d0: 1b02 f87f 49f6 e93f 2c32 a61e 6295 ac3f
000002e0: 4715 a470 ae6a a8bf a15f e564 65e4 ad3f
000002f0: 627a 4a52 8031 a8bf 4dd6 433a f015 a2bf
00000300: 4d88 188f 64c4 993f ec8f 88fd d584 64bf
00000310: 9cbf e8dd 3f53 92bf 2271 36ff 2111 bfbf
00000320: 84c2 d559 3641 613f ea5e 45b5 9016 2c3f
00000330: 5c07 890f 6f10 563f a0c6 5f15 5148 8fbf
00000340: ffa6 469c 0dd8 993f ad74 0f7b 8b4c 85bf
00000350: 49c4 f3f7 4b82 7fbf 7c7b 8ce4 f700 813f
00000360: 78d7 fd36 39e1 7bbf 8feb bc60 0a70 a53f
00000370: 9aab 44c2 19eb 96bf c1b9 3120 6b24 a5bf
00000380: c6b0 0f19 5808 99bf 6368 449c c6a0 9f3f
00000390: 848a 3564 8eb0 b0bf dd0d eb06 6218 9f3f
000003a0: 84b8 02e1 99e7 b7bf 0a6c 36ee 147a be3f
000003b0: e457 9e25 6c73 b0bf 1834 993f 9d0d 67bf
000003c0: 1fed 6b98 b83e b43f 1099 aebb 98b1 c4bf
000003d0: 4a7e 390e 4069 cdbf cb4e 8541 0665 d4bf
000003e0: 2574 094c f81b c3bf 7eb6 4c77 f3be c5bf
000003f0: f531 be38 e9bd d13f ba71 0c7d 6a95 25bf
00000400: 5018 712b c6a0 603f 3663 1c4d fd0e 573f
00000410: ffd7 48fd e005 51bf ae6c f0d8 049c 4cbf
00000420: a85f ca9c 3165 43bf 4d49 b29e 9706 483f
00000430: 9cf6 9dac bb81 4a3f 9be7 20ff 5467 593f
00000440: 2efd 84f1 bb20 313f 3ac7 990b 1363 2bbf
00000450: 02a6 dfc6 58ed 5bbf f5e5 3caa 0ecf 4e3f
00000460: 2454 0c0b 2127 4c3f fc3a f1f9 168b 443f
00000470: 46c6 5de7 8edb 393f c897 5f07 cf64 54bf
00000480: 8caa 5c66 be77 643f 7f9d 69a9 7e22 81bf
00000490: 9bee 37cf f80e a3bf 7039 898a 7c8b c1bf
000004a0: ffb2 f530 c173 9a3f fd8b 3940 01f3 87bf
000004b0: 8572 aadd 4ba0 aabf 2688 82f4 1871 b73f
000004c0: 3566 f32a ce69 cd3f 11cd 5c4a 8e90 d4bf
000004d0: 8183 3c23 0117 c2bf 1468 57c7 fdf9 99bf
000004e0: bc28 ff2c ff0c c23f 229a 6056 2cf5 a93f
000004f0: af0e 1475 b265 bf3f ddd9 eb53 b38e bdbf
00000500: e384 9785 f2e3 b4bf d9cc c7c9 e052 c53f
00000510: 0c71 31be 3589 c5bf
