weight.npy (npy, 1432 bytes, 1 tensors)

array f8 [163, 1]
00000000: 421a b9e1 6c0e d8bf 8af0 ae74 12cf 8e3f
00000010: 97a8 c9ea c7d0 a3bf 89e1 f4d3 47d1 853f
00000020: 6410 8a29 a9d5 803f 0301 5e1a 5cb2 6cbf
00000030: 0758 db9d 5950 a63f fcf0 cd5b 1998 a2bf
00000040: a53e 99d0 9d23 673f 2399 b597 5998 53bf
00000050: 3d39 051d d7ee b33f d5c7 4ad2 2085 e13f
00000060: e562 ef70 530e cc3f 7d9d fd74 9720 953f
00000070: 596d 7823 ad30 bf3f d26d 9587 f704 ba3f
00000080: 8822 6977 f6ac b93f 196c 4bc6 f683 d63f
00000090: 9e3a 1ed2 ed81 d03f 61ed a1fa 070e f43f
000000a0: e1cb 9b05 5c03 e33f ec66 5158 9840 c83f
000000b0: 5640 8e6e 29d2 c5bf 96b4 b05f a8cb e2bf
000000c0: e62d 4291 e2b4 ebbf e997 b9aa 7815 b5bf
000000d0: 6941 2aa5 7fd5 fbbf c97f 23a9 ccaf 1140
000000e0: 6ce9 6608 2dc3 f4bf 65f1 33e1 81b5 f7bf
000000f0: d14d 744e ff29 c13f d527 2f00 988e b6bf
00000100: 9559 85c4 3ce8 dd3f e41e f07e 2ccf f1bf
00000110: 6c37 d070 62c2 df3f 8faa f31e b481 e8bf
00000120: 06ba 2de2 0afd fd3f 33c5 3eb1 8fae 803f
00000130: 724a ff72 c5f0 9cbf 2794 5c2f 14d5 923f
00000140: 7b47 9b44 16a9 8dbf 31cf 69ca c081 a03f
00000150: cbd9 4000 d11d 7dbf 54cb bf6d abb6 7f3f
00000160: b6fe 3d0a 0980 a53f 1610 8e97 3637 b5bf
00000170: 8953 7cbe 203e 773f 96a8 387a dd48 8bbf
00000180: 0e7f b530 6671 91bf ea4f 33a8 2de3 9d3f
00000190: b758 5a8c dd40 84bf 278a bcce 989d a2bf
000001a0: e9e2 2f40 df9a 8e3f 507e 9ac9 ebfe 9bbf
000001b0: ab60 c7e1 62cf a73f c063 952a 1eb0 8fbf
000001c0: 65b7 46e8 1851 823f 4b4b c153 24ac 8d3f
000001d0: 9624 eca7 0a08 8bbf 1a76 edd0 0a53 5abf
000001e0: ad17 5655 af36 843f ba0b 2f1f d0cb 26bf
000001f0: 113e d44d 0acb 97bf e728 e025 0cba 8f3f
00000200: 6709 c1c6 5c6c 583f d47b b65e bd1c 80bf
00000210: e212 549e 82a3 7bbf d628 a65e aa87 903f
00000220: 0c77 436e a06c 84bf beeb 4c8d fcce 97bf
00000230: 497b 201a afd5 923f 1633 d668 ecc3 a8bf
00000240: 021a 4ec9 b52a b13f 6421 8b69 88d0 4d3f
00000250: 867f db12 a37e 71bf f116 7e18 9089 6c3f
00000260: 0783 b4ac 954a 733f 533c fa24 a249 38bf
00000270: 3290 4449 16f2 4e3f 3c0a f25a 93d1 71bf
00000280: ed7d 7415 ecd9 62bf 0c4a a740 156a 753f
00000290: f520 5b0d 80fa 76bf 6edf 1eec 81b0 833f
000002a0: 9dcf babe 3c77 943f f2b4 3afb 3f60 a0bf
000002b0: be7d 5aa1 2932 8cbf 8025 4f13 b84c ba3f
000002c0: 38e0 5897 61e4 bdbf 4cf8 6e26 1074 bb3f
000002d0: cc0f 0bae 77e8 e93f 7a6a 5479 4f5b a73f
000002e0: 7f7a ad3a 12f2 a6bf 149c 05f3 ea9d a83f
000002f0: 9255 28b8 d49c 80bf ab5f 60b1 8376 a3bf
00000300: 501b ecd9 8b7f a63f 8d6b 3636 2761 9dbf
00000310: e679 68ab 678a 7cbf ad7d 4ed9 264a bfbf
00000320: 9461 6a41 8c45 463f df26 a7a1 4286 43bf
00000330: a167 3d13 ad51 593f 7be3 e238 99ff 8abf
00000340: 869c 6198 b56a 9b3f 301b 511c e0b7 8abf
00000350: 0c48 0aa0 8e8d 77bf 3f7f cb94 dc38 823f
00000360: b058 4ad6 3ace 75bf bec2 cd99 03a2 a93f
00000370: 7841 21e9 f9ff 92bf 1900 7f62 5484 9cbf
00000380: 389b 2a69 6b79 93bf fd67 8137 9173 8c3f
00000390: 4c16 4d3c 6ef3 a4bf 3297 3a54 4cbf 973f
000003a0: 6e70 f43f 0248 b6bf 01ec 232a 7e4e ba3f
000003b0: 1de0 14e4 e727 a63f 19dd fea8 5075 b63f
000003c0: 0e29 7554 5e31 993f cd15 3a0e 7a39 bfbf
000003d0: 0418 a74e 5abc cfbf e849 04c0 6bd9 d3bf
000003e0: 7a41 f036 b85b c2bf 09fe 75c5 41d9 d1bf
000003f0: 6923 f299 8664 bf3f 7bd3 fa86 b9f4 503f
00000400: 0b89 c4ea 4a0a 533f a5a6 cbcd 9703 453f
00000410: 8f71 0c10 a660 54bf 3f3a 8cac 5b58 5bbf
00000420: f1a0 2614 c4a6 69bf 35f7 a45b bb38 233f
00000430: 9231 424f 46eb 323f d022 8ded 02de 3f3f
00000440: eb2f c1b7 bb89 4e3f b09f 7935 5ee5 073f
00000450: 9e9c c222 cd25 61bf 2245 4c2a 3f7c 3b3f
00000460: f2fa 43f6 096d 643f 6cb2 8c18 6544 53bf
00000470: 10ad affe 07ba 4c3f f02f 45da 1038 49bf
00000480: edc1 31d4 2137 553f 74f7 b448 f1c1 a9bf
00000490: 2ce6 243b dcf7 92bf 508f 373b 19cc c0bf
000004a0: 4474 234f 54de b63f 2b77 9c33 6ca4 9d3f
000004b0: 23ee e576 e3bd a7bf 7ea4 98c7 a66c c13f
000004c0: e896 d06e f439 c93f c3b0 d5fd 9080 d6bf
000004d0: 9ed2 2e82 b951 c3bf 7415 74bc 4d51 693f
000004e0: 9eb2 4a7b 3609 c23f b858 e762 f427 abbf
000004f0: 0986 5405 c2f1 ba3f dc99 0538 616a bdbf
00000500: 2934 78e8 6ead c0bf 0e2b f242 fabc c53f
00000510: 9e13 8444 7b7a c3bf
-0.3758804516150215 0.015043396173375596 -0.03870224705754415 0.010653077274228167 0.008220025615863054 -0.0035030173193605365 0.04358177234614407 -0.03631667371425526
0.002824600441080199 -0.0011959910323980436 0.0778631635523412 0.5475010020511443 0.21918719305428805 0.020632139697594355 0.12183649173714652 0.10163828907155129
0.10029545226383096 0.35180444111546333 0.2579302360472101 1.2534255781491412 0.5941600904028485 0.18947128593827445 -0.17047613046861682 -0.5873605603170684
-0.8658306920128183 -0.08235887687769118 -1.7396236850509814 4.421679156104752 -1.2976503685191245 -1.481813316058003 0.13409415560509655 -0.08811330799576862
0.46729964438909494 -1.113079543925715 0.4962392903988675 -0.7658329586532363 1.874277957449182 0.008145449253648884 -0.02826221956622494 0.01839095629761203
-0.01448266407843212 0.032239937504441214 -0.007108513269534498 0.007742566722287975 0.04199245691324675 -0.08287373733588796 0.005674484163837764 -0.013322572986983066
-0.017034146044692604 0.029186929122104667 -0.009889345975619397 -0.036358618961703386 0.014943832537015438 -0.027339634113216882 0.046504106579676595 -0.015472636866137424
0.008943743313320327 0.014488490873338164 -0.013198931932054497 -0.0016067128778652962 0.009869928161389508 -0.00017392077969988017 -0.02323547458678205 0.015491576104996031
0.001490679361282854 -0.007867316677957627 -0.006747732380294665 0.016142522837562755 -0.009972813954330494 -0.02325052845410957 0.01839326474157169 -0.048369777486277396
0.0670579544513217 0.0009098688197691049 -0.0042711610855973355 0.0034835638397819825 0.004709801355858862 -0.0003705998287637003 0.0009443863696430076 -0.0043502574982335306
-0.0023011790286913054 0.0052281217744671975 -0.005609989360614733 0.009614005106285819 0.01998610414621248 -0.03198432866825297 -0.013767552601449459 0.10273313971915421
-0.11676607079505252 0.10723973215405741 0.8096273803025666 0.04561851841045424 -0.04481560674934303 0.04807981697631916 -0.008111631269495576 -0.03801356830825794
0.04394185099777437 -0.028690922435639577 -0.006967930754881091 -0.12222521596276321 0.0006796774712994219 -0.0005958390568647462 0.001545351999956847 -0.01318282799580727
0.026774251390091063 -0.013046027053986359 -0.005750233773726531 0.008897517481670668 -0.005323629219352963 0.05006419422614304 -0.018554596761818115 -0.027848547469830096
-0.01901786641488032 0.013892302042382449 -0.04091972814653086 0.023190682068750586 -0.08703626691243624 0.1027602055436745 0.043273207275376736 0.08772758603923982
0.024602388291250547 -0.12197077605568225 -0.24793557014908185 -0.3101453185237504 -0.14342405970138455 -0.2788853100136924 0.1226276517719619 0.0010349094190306985
0.001162121926491513 0.0006412974576878906 -0.001243745966525631 -0.0016690154317903353 -0.0031312780058280133 0.00014664923748768937 0.00028868166487752104 0.0004862553737905841
0.0009319464293269219 4.55779433508602e-05 -0.0020932203825228665 0.00041939298743994176 0.002493400055868172 -0.0011759745850198578 0.0008766688382570182 -0.0007696230209517357
0.0012948828087041523 -0.050307788968423944 -0.0185236369227139 -0.13122859374481743 0.08932997638790235 0.028947535181138278 -0.04637060953515639 0.13612828012381678
0.19708114062193904 -0.3515970686774034 -0.15093153816782928 0.0030905264171702754 0.14090615291697345 -0.05303920466728712 0.10525143270617589 -0.11490447633477835
-0.1302927622895436 0.16982963818403402 -0.15217533917907827
